model.pth (torch, 79650 bytes, 19 tensors)

model.0.weight f4 [64, 5]
000000 c5 6e 70 be b0 9e 52 3e d6 eb c5 3d 93 43 c8 bc
       -0.23479755 0.20568347 0.09664123 -0.024446284
000010 f5 60 c9 3e ac ee cb be 23 b1 58 be 8b 57 03 be
       0.39331785 -0.3983053 -0.21161322 -0.12826364
000020 42 6e 22 3d 1b c5 b3 3e 42 00 e7 bc 43 97 01 3f
       0.03965593 0.35111317 -0.028198365 0.5062143
000030 d9 0d f7 3e 00 45 3b 3e a9 33 00 be d7 13 df bd
       0.48252752 0.1828804 -0.12519707 -0.10892456
000040 28 b6 87 3e 3c ae f7 3e 50 f2 95 be 34 37 b0 3d
       0.26506162 0.48375118 -0.29286432 0.08604279
000050 ca de 88 3d dd a4 70 bd 01 c7 9b 3d 2e 89 ec 3d
       0.06683119 -0.058750976 0.07606316 0.115496024
000060 da 92 7d bf bf 20 2a 3d 66 12 67 3d bf a7 56 3e
       -0.990522 0.041535135 0.05641403 0.20962428
000070 5c af d2 bc ab 4c b4 bf 40 11 20 be c6 ae 83 be
       -0.025718383 -1.4085897 -0.1563158 -0.2571928
000080 03 31 2e bf 1c 5c b9 bd 8f af a9 bd 0c c8 61 bc
       -0.68043536 -0.090507716 -0.08285438 -0.013780605
000090 70 f1 2f 3e ba 47 19 3e 75 b7 13 bd 70 88 34 bd
       0.17181945 0.14968768 -0.03606363 -0.04407543
0000a0 df 41 8d bd 7a 89 fc 3c 5a 3a 99 bd 7e 22 10 bd
       -0.068973295 0.030827273 -0.07481833 -0.035189144
0000b0 d7 6d c4 bc c4 7a 3b 3e 13 7a 87 3e 35 7b af 3e
       -0.023978157 0.1830855 0.26460323 0.34273687
0000c0 a8 d0 41 3e 62 82 50 be 06 3e 97 bb 3a c8 98 bd
       0.18927252 -0.20362237 -0.004615548 -0.07460065
0000d0 c8 f2 83 bd 5d 48 8f ba 80 8a 6d 3d ba 40 13 be
       -0.06442791 -0.00109316 0.057993412 -0.1438016
0000e0 6f c0 ed ba e1 31 61 be 0b 91 c6 bd 59 90 32 3f
       -0.0018139015 -0.21991684 -0.096956335 0.6975151
0000f0 0e 6e 3d bf 10 27 a1 be 68 ce 18 be e9 8d b2 3c
       -0.73996055 -0.31475115 -0.14922488 0.021796184
000100 c9 e6 9f 3c 0b 7a 0f 3d 47 b4 ae 3c 76 0f 28 3d
       0.019519227 0.0350285 0.021326197 0.04103037
000110 ce cd 47 3d 0d d4 4f 3d af 88 0a 3b 7f 81 f9 3d
       0.048780255 0.050739337 0.0021138599 0.121829025
000120 26 fb 15 3e f9 08 64 3f 01 13 a4 bd 4c fb df 3c
       0.14646587 0.8907619 -0.08011437 0.027341507
000130 b8 57 0b bd 43 3d f7 3d 83 6a c4 bd 1b 05 79 3f
       -0.034019202 0.120722316 -0.09590628 0.97273415
000140 a7 75 f8 3c c4 46 9f bd 13 61 b4 bf 51 73 f9 bd
       0.030329539 -0.07777169 -1.4092125 -0.12180198
000150 32 0d 48 bd 7a 25 e7 bc df 00 18 be 1d 27 2c 3f
       -0.04884071 -0.028216112 -0.14844082 0.6724718
000160 e0 19 de bd 7a ae 6e 3e 6f 9a a0 3d 8d 25 10 bc
       -0.10844779 0.23308745 0.07841956 -0.008798015
000170 73 d4 70 3e 02 3f 00 bd 69 e6 8d bf c0 09 0d 3c
       0.23518543 -0.03131009 -1.1085941 0.008608282
000180 3b c0 6f 3e d6 34 51 3f 7d f3 79 be 24 06 9a 3d
       0.23413174 0.81721246 -0.2440929 0.075207025
000190 f7 87 0c be 88 aa e4 3d c3 f8 31 3f 6f ef 9a 3e
       -0.13723741 0.11165339 0.69520205 0.30260798
0001a0 db f1 5b be d5 b3 2f be f3 e7 43 be ce 57 49 bf
       -0.2147898 -0.17158444 -0.1913145 -0.78649604
0001b0 93 02 d1 3d 02 2e ee bc 2b 84 2c 3e 0c 2b a7 3d
       0.10205569 -0.029074673 0.16847293 0.081625074
0001c0 d5 fb f1 3e 29 ea 83 3e 2a 76 46 be a0 29 00 3d
       0.47262445 0.25764588 -0.19381014 0.031289697
0001d0 58 85 ba 3c 13 e2 f1 bd 75 0b a8 bd 16 00 37 bd
       0.022768661 -0.11810698 -0.0820531 -0.044677816
0001e0 e0 1b b5 3d 17 08 00 3b 03 47 01 3f c4 f7 eb 3e
       0.08843207 0.0019536072 0.5049898 0.46087468
0001f0 87 96 a8 bd fa 0b 52 bd 5b 08 9c 3d 36 94 a7 be
       -0.08231836 -0.051280953 0.07618781 -0.32730263
000200 46 1f dc 3e ad 8c e3 bd 1a 5e b9 bd 95 d4 79 3d
       0.4299261 -0.11110816 -0.090511516 0.06099375
000210 a0 2c e1 bb d7 e6 9a 3c 0c d9 11 3e 2e d3 79 3c
       -0.006871775 0.018908901 0.14242953 0.015248103
000220 e5 6c 2b 3d 49 fe 0e bd 55 37 11 3d b4 81 36 3d
       0.041851897 -0.034910474 0.03545316 0.04455729
000230 48 72 99 bd 7d 41 8f 3d 25 d8 dd 3e ec 36 6b be
       -0.074925005 0.06994913 0.43328968 -0.2297017
000240 3d b8 b0 3d 4b 93 a4 be 55 c8 a0 3d 08 1c ae be
       0.08628891 -0.32143626 0.0785071 -0.3400576
000250 56 94 73 be 77 73 a1 be c6 2a 6a be fb f7 71 be
       -0.23787054 -0.31533405 -0.2286788 -0.23629753
000260 59 f6 2d bf 13 82 6e be 5f 98 40 bd 30 1c 83 be
       -0.6795402 -0.23291807 -0.047020312 -0.25607443
000270 62 b0 ee be 63 d6 42 be 2b 3a 41 be 89 dc 28 3e
       -0.46618944 -0.19027095 -0.18869846 0.16490377
000280 a5 33 0d bd 76 d6 19 bd 34 15 89 bc 00 d6 9c bd
       -0.03447308 -0.03755804 -0.016733743 -0.07658005
000290 ff 61 95 bf 40 37 ba bd 72 e1 d7 bd 2b e6 1d be
       -1.1670531 -0.09092569 -0.10541047 -0.15419833
0002a0 c4 f1 04 bd 1d f1 4b 3d 7c a3 1a bb 24 39 9b bd
       -0.03245713 0.04979049 -0.002359598 -0.07579258
0002b0 d3 63 59 3e 3a 74 e4 3d 49 c3 8f bf 76 10 d0 bc
       0.21229486 0.11154981 -1.1231471 -0.025398474
0002c0 ce a9 c3 3d 5b 6a 18 bd c1 3a 7d be 93 17 7f bf
       0.09553872 -0.037210803 -0.24729444 -0.99645346
0002d0 04 a9 31 be f5 69 15 3e a9 a6 cb 3d e5 33 30 bd
       -0.1734963 0.145912 0.09943897 -0.04301824
0002e0 8e c7 a9 3e 05 f3 36 3c e5 50 27 3d 4f 7d 74 bc
       0.3316006 0.011166339 0.04084863 -0.014922454
0002f0 67 fb 88 3c c3 c3 2f 3e 32 0d a4 3d 1f ee ad 3e
       0.01672144 0.17164521 0.08010329 0.33970734
000300 ec 31 01 3f c7 59 9f bd 42 12 b1 3d d0 e1 1b bd
       0.504668 -0.077807955 0.086460605 -0.03805715
000310 cf f6 63 3d 13 b6 7e 3d 41 64 76 bd 6e 82 0a 3e
       0.055655297 0.06218536 -0.060154203 0.13526317
000320 54 90 49 bf eb 59 a9 be 8a c4 bb bd 34 43 86 3d
       -0.7873585 -0.33076414 -0.09168346 0.06555787
000330 cf 04 c2 3c 4d 9c 12 3e b3 02 f9 3b 80 5b 96 3e
       0.023683934 0.14317437 0.0075991987 0.29366684
000340 06 ee 44 bd cb 86 61 bf 73 9e 8d 3d de 72 a1 3d
       -0.04807856 -0.880963 0.069149874 0.07883237
000350 84 99 0f 3e 77 a7 5d 3e d7 5c c7 bf 8d 30 81 bd
       0.14023405 0.21645914 -1.5575207 -0.063080885
000360 3e c8 fb 3b fb d9 aa 3e 8e c8 f7 bd cc be 48 bf
       0.007683783 0.3336943 -0.120988 -0.7841613
000370 79 3b 7f 3c 5f a9 30 be d4 e5 02 3e 09 39 c1 3e
       0.015578144 -0.1725211 0.12782985 0.37738827
000380 03 a3 b3 3d bb 94 1c be 00 7c 3c bf 9b b3 0d bb
       0.087713264 -0.15291111 -0.7362671 -0.0021621946
000390 7e a2 9f bc bc 48 77 be 27 b3 87 bd ff 42 79 bd
       -0.019486662 -0.2414884 -0.066259675 -0.060854908
0003a0 94 17 0d be 7f ce 61 bd c6 ae 6d 3f 32 35 49 be
       -0.13778526 -0.05512857 0.9284481 -0.19649199
0003b0 71 db 37 be 21 f5 0e bf 8c 7a b4 bc 79 8b a4 3e
       -0.17954804 -0.5584279 -0.022031091 0.3213766
0003c0 a7 a0 aa 3c 58 03 63 bd b6 f9 0e 3e d5 bf 0b bc
       0.020828558 -0.05542311 0.13962445 -0.008529623
0003d0 ca d0 9e bf ea 14 05 3e ed 93 dc 3e 16 24 c1 3e
       -1.2407467 0.1299626 0.43081608 0.37722844
0003e0 0e dd 64 3e b8 fc 73 bd 46 ec 1f be ca 35 3a 3e
       0.2234995 -0.059567183 -0.15617475 0.18184581
0003f0 2e 92 d6 3d fb e3 30 bd 41 9e db 3e 69 10 a2 bd
       0.104771 -0.04318617 0.42894176 -0.07913286

model.0.bias f4 [64]
000000 2b 6c c7 bd 64 6e 84 3d c8 54 6a 3d e5 c4 c2 3d
       -0.09737428 0.06466368 0.05720976 0.09510211
000010 a1 28 81 bd 3e c7 d9 3c 21 b3 03 be 6b 4c 13 3d
       -0.063065775 0.026584264 -0.12861301 0.03596155
000020 66 1e 34 3b fd 3d 6e 3d 85 9a 17 bc e6 44 d4 bd
       0.002748394 0.058164585 -0.009253149 -0.10364704
000030 c3 f1 a3 bd 9b 2a 8f 3c 60 cf 1c 3c f2 23 96 bc
       -0.08005097 0.01747637 0.009570926 -0.018327687
000040 7a 31 04 3e 7c 82 44 bd 16 6b dc bd a8 35 23 3e
       0.12909499 -0.047976002 -0.107626125 0.15938437
000050 4c a8 72 bc 39 35 13 be 8d 87 94 bc d8 d7 c6 bc
       -0.014810633 -0.14375772 -0.018131042 -0.024272844
000060 74 7e ae bd 92 f8 81 3d 70 4f b7 3c 4e 4b cf 3b
       -0.08520213 0.06346239 0.022376746 0.0063261157
000070 ce b7 9b 3d 35 50 26 3e 5c 33 1c 3e 46 b8 e9 3c
       0.07603417 0.16241534 0.15253967 0.028530251
000080 41 e4 8a 3c 37 95 71 3c 40 14 03 bd a0 48 9f bd
       0.016954543 0.014745048 -0.032001734 -0.07777524
000090 f2 ea ee bc f2 62 d3 3b fa 05 cf 3c 25 6a 00 3d
       -0.029164765 0.006451004 0.025271405 0.031351227
0000a0 57 92 8d 3c 14 c8 3b bc 4c 8d ab bd 19 02 a4 3e
       0.017281694 -0.011461277 -0.083765596 0.3203285
0000b0 73 63 b5 3d 1f 8d fd bc 0b d3 77 3b 2c 3d f0 3c
       0.08856859 -0.03095108 0.0037815 0.029326044
0000c0 42 9c 80 bd 91 6a 30 3e 9d fe ab bd d6 72 de 3d
       -0.06279804 0.17228152 -0.08398173 0.10861747
0000d0 73 7b aa bc 9b 6d 16 3c 71 8b 96 be 9b 51 98 bc
       -0.020810818 0.009181405 -0.2940326 -0.0185936
0000e0 ff 0d 10 3d 14 35 63 bc ee dc ec bd 96 fc 6e bd
       0.035169598 -0.013867635 -0.115655765 -0.058346353
0000f0 51 b6 a0 bc a6 f9 3c 3d 5e 13 d0 38 c6 b8 ac 3d
       -0.019618185 0.04613652 9.92182e-05 0.0843368

model.1.weight f4 [64]
000000 b2 ff 58 3e 9f 44 93 3e e9 1d f2 3d 4c ec d3 3e
       0.2119129 0.2876329 0.11822111 0.41391218
000010 74 79 c6 3e 13 c7 fb 3e 98 d5 a1 3e 8e d2 f5 3c
       0.38764536 0.4917532 0.31608272 0.030007627
000020 58 69 cf 3c 5c a8 6c 3e 02 db 3d 3b 79 6e b8 3e
       0.025318787 0.23111099 0.002896965 0.36021784
000030 12 e8 cb 3e 8d 07 72 3c 2d 7c 96 3e 6c c3 9a 3e
       0.39825493 0.014772308 0.29391614 0.3022722
000040 aa 5f b5 3e a6 e9 74 3e 9c bd db 3e 1b 59 ae 3e
       0.35424548 0.23917255 0.42918098 0.34052357
000050 d3 1b db 3e 67 3b 6e 3e 84 12 43 3e 4f 68 9e 3b
       0.42794666 0.23264848 0.19050032 0.004834212
000060 a2 62 91 3e fe 04 74 3e ab 06 0a 3d 67 31 29 3b
       0.28395563 0.2383003 0.033697765 0.00258168
000070 a7 e6 46 3d 0f fb c5 3e dd e1 84 3e f2 9f af 3e
       0.04855981 0.38668105 0.2595357 0.34301716
000080 47 91 de 3e 0a ce 5b 3d d2 4c c0 3e dd 49 ae 3e
       0.43470213 0.05366329 0.3755861 0.34040728
000090 80 63 8f 3d 80 54 1c 3b 8e 7d bd 3d 8e 06 b3 3c
       0.070014 0.0023854077 0.09252463 0.021853711
0000a0 7c bc d0 3e cb 68 b9 3e b1 67 0c 3f 57 e7 9d 3e
       0.40768802 0.36212763 0.5484572 0.3084056
0000b0 2d 90 0b 3c 71 ef a9 3e e5 38 93 3e cc c2 68 3e
       0.008518261 0.33190492 0.28754345 0.22730559
0000c0 10 08 db 3e 2b 54 16 3e 9b 45 6f 3e 5f e7 a7 3e
       0.4277959 0.14680545 0.23366396 0.3279371
0000d0 2b df ca 3e 22 53 da 3e 62 18 bb 3e 3d 6f b4 3e
       0.3962339 0.4264155 0.3654204 0.35241118
0000e0 76 76 fe 3c 24 d9 aa 3e 96 69 d3 3e 71 cd c9 3e
       0.031062346 0.3336879 0.41291493 0.39414552
0000f0 e4 f3 9d 3c fa dc cd 3e 39 94 25 3e 6a ed 99 3e
       0.019281335 0.40207654 0.16169824 0.30063945

model.1.bias f4 [64]
000000 d3 c6 05 be 22 d9 2c 3a ea e7 ab bd 5e 46 d2 bd
       -0.13064127 0.00065936346 -0.083938435 -0.10267328
000010 2f b9 23 be 4b c9 3d be 26 4b 9c bc 97 d8 09 be
       -0.1598861 -0.18533818 -0.019078802 -0.13461529
000020 a3 51 94 bd 30 40 2f be 6c 89 41 bc e6 31 8f be
       -0.072421335 -0.1711433 -0.011812549 -0.27967757
000030 f8 fa 99 be 48 93 3e bd e6 05 49 be 92 36 30 be
       -0.30074286 -0.046527177 -0.19631156 -0.17208317
000040 1a 91 50 be 32 87 82 be 9b 69 c0 bd 20 07 23 be
       -0.20367852 -0.2549377 -0.09395143 -0.15920687
000050 02 2b 48 be ea 36 61 bd 69 40 bd 3d 75 ca 9b bc
       -0.19547656 -0.05498401 0.09240801 -0.019017437
000060 66 d1 f8 3c b4 98 1c be d9 b4 f0 bd 2d 2c 92 bc
       0.030373286 -0.15292627 -0.11753244 -0.01784333
000070 f5 ed 26 be 43 fe c1 bd 10 85 d6 bc 65 62 25 be
       -0.16301711 -0.09472325 -0.026186496 -0.16150816
000080 fa 60 92 bd 8a 6e 22 be 3d 5d 55 be 73 e6 ae bd
       -0.07147403 -0.1586248 -0.20836349 -0.085400485
000090 e7 9f 3e be d6 38 66 bc b9 3b 77 be c8 db b9 bd
       -0.18615685 -0.014051637 -0.24143876 -0.09075123
0000a0 6e 49 7a be 6f 1a 1b be 7a 8f 3a be 90 2f 7c be
       -0.24442074 -0.15146802 -0.18218794 -0.24627519
0000b0 88 37 c9 bc 1a 13 12 3e aa e8 59 be 7e e9 77 be
       -0.024562612 0.14265099 -0.2128016 -0.24210164
0000c0 6b 37 f0 bd ec f1 13 3e 46 84 43 be 36 c7 5c be
       -0.1172932 0.14447755 -0.19093427 -0.21560368
0000d0 06 80 cc bd 54 d4 57 bd 62 3c 71 be bb 6f e0 bd
       -0.09985356 -0.052692726 -0.2355819 -0.10958811
0000e0 91 ce c9 bd da dd ce bb 12 ef 3e be 14 b7 02 be
       -0.098538525 -0.006313068 -0.18645886 -0.12765151
0000f0 81 1d 1e be 01 14 15 be 5c 46 91 bd 06 1a 64 3d
       -0.15440942 -0.14558412 -0.07093498 0.05568888

model.1.running_mean f4 [64]
000000 38 b9 86 3c 10 47 bc bd 05 0b 07 3f ac 35 75 3e
       0.016445741 -0.091932416 0.5275119 0.23946255
000010 71 e7 82 be 67 08 91 be f6 e5 3d bf f5 75 01 3e
       -0.255672 -0.28326723 -0.7417902 0.12642653
000020 30 30 c0 bd f9 f7 e8 3e f2 25 4e bd 0b 25 fe bd
       -0.09384191 0.45501688 -0.050329156 -0.12409409
000030 1d 1f 0e bf b4 63 dd 3d 36 de 21 3f b7 76 a0 3e
       -0.55516225 0.108100325 0.6322969 0.31340572
000040 2d 68 4e bf 0e d8 a4 3e b9 2f a0 be 26 83 14 3f
       -0.8062771 0.32196087 -0.3128641 0.58012617
000050 4e b9 f5 3e a6 09 30 bf bc ea e6 3e c8 ba 0d be
       0.4799294 -0.6876472 0.45100963 -0.13840783
000060 9b 6d 00 3f ae 83 a4 3d 32 d6 4b 3d b2 86 1a 3d
       0.50167245 0.080329284 0.04976482 0.03772611
000070 17 fd 58 3e 3b 71 d2 be ee 41 12 bf 66 ea bc be
       0.21190296 -0.41102013 -0.5713185 -0.36897582
000080 62 9e e1 be e3 f4 16 be 36 16 62 be cd 6e 0f bf
       -0.4406615 -0.14741854 -0.22078785 -0.56028444
000090 eb 2b 8f 3d 4b c7 9e 3d 3e b7 db 3e aa 20 96 3d
       0.069907986 0.07752856 0.4291324 0.07330449
0000a0 22 00 d8 be f6 70 a5 bd e3 cc a8 be 0e fb 2e 3e
       -0.421876 -0.08078186 -0.32968816 0.17087957
0000b0 02 11 c3 3e 5c c2 bc be 0d a3 0f 3e 36 00 b0 be
       0.38098913 -0.36867034 0.14027043 -0.3437516
0000c0 02 96 c8 be b0 61 2c 3f e9 03 75 3d 64 b7 81 bd
       -0.39176947 0.6733656 0.059818182 -0.06333807
0000d0 ef 3a 61 be 03 43 eb be 8e 60 08 bf 10 f0 3e 3d
       -0.21995138 -0.45949563 -0.5327233 0.04661566
0000e0 a6 bc a5 3d e1 fb 0c bf 3c 17 03 bf 1f f7 21 bf
       0.080926225 -0.55071837 -0.5120733 -0.632677
0000f0 11 4d 24 bc 90 29 33 be 41 96 a8 3e a3 a0 f8 3e
       -0.01002814 -0.17496324 0.32927135 0.48560056

model.1.running_var f4 [64]
000000 d8 bf 0f 3d 37 5b 98 3d b5 34 57 3d 52 ef f2 3c
       0.035095066 0.07439273 0.0525405 0.029655132
000010 e3 46 36 3e 60 97 b4 3e 38 ff a1 3c 7e 7c a1 3b
       0.17800479 0.3527174 0.019775018 0.0049281707
000020 e8 be 8d 3a b6 58 42 3d fc 40 f6 3a eb 69 d0 3d
       0.0010814341 0.047447883 0.0018787677 0.10176452
000030 7e 73 01 3e a8 e4 64 3a 57 d2 10 3e b2 7b 2d 3e
       0.12641713 0.0008731582 0.14142738 0.16941717
000040 df 15 df 3c b3 43 c8 3c 95 d0 5f 3e 9e 4f e7 3c
       0.027232109 0.024446344 0.21856911 0.028236207
000050 e8 a1 1e 3d 2b 13 af 3c 71 52 16 3d 3e 31 a8 3a
       0.038728625 0.021371445 0.036699716 0.0012832058
000060 86 a7 31 3d 5b 0f 25 3d 54 b6 97 3b 87 a9 2a 3a
       0.043372653 0.040297847 0.0046298895 0.0006510247
000070 5d d4 8c 3c 6f 1b 14 3d 1d 2b 0f 3d c1 23 9b 3d
       0.017191106 0.036158975 0.034953225 0.07575179
000080 cd 77 5f 3e bf 5d bc 3b 4b d1 62 3e 5c b7 2e 3e
       0.21823044 0.00574848 0.22150151 0.17062134
000090 bb 92 c7 3c 8d 61 8f 3b f6 1d 97 3c 55 f3 8a 3b
       0.024361959 0.0043756426 0.018446904 0.004240433
0000a0 01 65 10 3e 58 4e 17 3e 21 72 f2 3e 05 58 d6 3d
       0.1410103 0.1477598 0.47352698 0.10466007
0000b0 b4 2a bd 3c 83 87 7f 3d e8 e6 28 3e 81 ff 4b 3d
       0.023091651 0.062385093 0.16494334 0.049804214
0000c0 82 99 82 3e c6 d2 49 3d bc 10 0d 3d e2 db 3d 3e
       0.25507742 0.049273275 0.034439787 0.1854091
0000d0 18 03 24 3e bb ee 31 3e ef de b4 3d fb 42 9a 3d
       0.16016805 0.17376225 0.08831584 0.07532307
0000e0 3c d8 99 3c 93 74 f1 3c 36 d2 77 3e fd 71 d7 3d
       0.018779866 0.029474532 0.24201283 0.105197884
0000f0 3c e6 19 3c 5c f9 25 3e 44 e5 e5 3c 43 97 56 3d
       0.009393271 0.16208404 0.028063424 0.05239035

model.4.weight f4 [128, 64]
000000 8b d6 20 be 93 93 3a be 7d 17 d5 bd ee 04 3a 3e
       -0.15706842 -0.18220358 -0.10404871 0.18165943
000010 c6 1a b1 3e a5 96 f2 3e b7 1c 0c be 24 f7 11 bd
       0.3459074 0.47380558 -0.13682829 -0.035636082
000020 bc ee cf bc 50 3a e0 bd 24 23 93 bb 9c 15 e7 be
       -0.025382392 -0.10948622 -0.004490273 -0.45133674
000030 2e a9 2a 3e 92 25 83 39 42 b3 80 3e e0 22 13 bf
       0.166661 0.0002501426 0.25136763 -0.5747509
000040 27 73 70 be d6 13 9b be 7b 2e fb 3e b8 94 77 3d
       -0.23481427 -0.3028857 0.490589 0.060444564
000050 20 63 ec 3e 26 ae 4b be 43 11 14 bd 73 c9 78 bd
       0.46169376 -0.19890651 -0.036149275 -0.060738992
000060 ad 3e 04 3e 5f a0 15 3e 41 9d 0a bd fe c4 9d bc
       0.12914534 0.14611958 -0.033841375 -0.019258972
000070 62 2a 56 be 25 64 8d be 2b e4 e4 be 72 94 bc be
       -0.20914605 -0.27615467 -0.44705328 -0.36832005
000080 b7 7d 8a 3e fe 76 6f bd 6f 48 b3 3e 19 71 26 3e
       0.27049038 -0.05846309 0.350162 0.16254081
000090 fe e2 69 bd a7 7a f2 3c dd 13 e8 bd 01 e4 87 bd
       -0.057101242 0.0295995 -0.113319136 -0.06635285
0000a0 c9 3d f6 3d 16 bb b0 3e 2a d4 07 3f 8c 36 e9 3e
       0.12023503 0.34517735 0.5305811 0.45549428
0000b0 4b 80 42 be 39 3e 17 be 4d 12 06 bf 0a 38 ed be
       -0.18994252 -0.1476983 -0.52371675 -0.46331817
0000c0 e6 4a 1b 3f 53 e8 9c bc df e5 d3 be 50 df b0 3c
       0.6066116 -0.01915375 -0.41386315 0.021590859
0000d0 94 ac 36 3e 1d 42 94 3e bb 4f 9e 3d f0 65 0f bc
       0.17839271 0.2895669 0.07730051 -0.008752331
0000e0 03 46 c3 bc 0a da 1c be 4a 76 b1 3e 6c 73 c6 3e
       -0.023837095 -0.1531755 0.3466056 0.38759935
0000f0 e6 9f 14 bd 27 f1 60 3e 0c c8 11 be 0a 92 12 3d
       -0.036285304 0.21966992 -0.14236468 0.035783805
000100 cf 10 59 be 51 17 c9 3c 17 75 50 be aa e7 c8 bd
       -0.21197818 0.024547251 -0.20357166 -0.098098114
000110 5d 49 15 bf 53 38 2d be 2a 27 93 3e a6 ca 87 bd
       -0.5831507 -0.16916017 0.28740817 -0.06630449
000120 2c 99 4d 3b 06 33 de bd 85 cf de 3b a1 9f 99 be
       0.0031371815 -0.10849576 0.0067996406 -0.300046
000130 68 87 94 3e 0c 98 0e 3d 68 4a c9 be 61 53 01 bd
       0.29009557 0.034812972 -0.3931458 -0.031573657
000140 0a be fb 3c 23 a5 8d 3e 40 0b 09 bf 34 32 ea bc
       0.030730266 0.27665052 -0.5353279 -0.028588392
000150 50 59 c7 be b2 0d c4 3d 55 bf a6 bd dd 76 c8 3c
       -0.38935328 0.09572925 -0.081419624 0.02447074
000160 35 1a d9 3c 55 2d 6d be 68 68 80 bd e4 99 17 bd
       0.026501754 -0.23161824 -0.06269914 -0.037011996
000170 97 75 37 3b 15 45 f4 3d fc 6a a2 3d 5b 5e 93 3e
       0.0027993673 0.11927239 0.07930562 0.28782925
000180 0e a9 5a be 2e 95 11 3d 98 37 4c be 67 97 b0 bd
       -0.21353552 0.03554266 -0.19943082 -0.08622628
000190 cb 8a b9 bd 3f 99 33 bc 22 6f 37 be 72 1c d6 3b
       -0.09059676 -0.01096183 -0.17913488 0.0065341527
0001a0 a6 9f a5 3d 1b f9 bd be a6 48 37 be cb 7a b8 bd
       0.08087091 -0.37104115 -0.17898807 -0.09007796
0001b0 48 fe 9d 3d da bb 93 3d 8e 23 f1 3b ef 57 d2 bd
       0.07714516 0.07213564 0.007358975 -0.10270678
0001c0 49 ba 16 bf d1 00 1e bf f5 e9 b1 be 2e a9 cd bc
       -0.58878 -0.61719996 -0.34748808 -0.025105085
0001d0 bf a6 58 be e3 b6 d7 bd 0a 89 25 3e 1b c8 62 be
       -0.21157359 -0.1053293 0.16165558 -0.22146647
0001e0 4f 71 65 3e f8 9c 9a 3d 1d 30 15 bf 34 f2 d6 3d
       0.22406505 0.07549471 -0.5827654 0.10495415
0001f0 5e 5d d2 3d 4d de cd be 4f eb 6a be 14 0a 43 be
       0.10271715 -0.40208665 -0.22941326 -0.19046813
000200 2f af 0c be 91 45 55 be 23 ff 4e 3e 39 02 16 3d
       -0.13738702 -0.20827319 0.20214514 0.036623213
000210 0b e7 49 3e 4d 0c 48 bd 6b 8b a0 bd fb cb 55 3d
       0.19717042 -0.048839856 -0.07839092 0.052196484
000220 8b bf be 3c f4 42 57 3e b7 87 20 bc f2 9d 10 bf
       0.023284694 0.21021634 -0.009797982 -0.56491005
000230 77 81 82 be 09 2b 33 3c 96 9d 2f 3d cd d8 f2 be
       -0.254894 0.010935553 0.042874895 -0.4743103
000240 c1 56 1c be c6 54 82 be 2f bc 4b 3e c9 3a b3 3e
       -0.15267469 -0.25455302 0.19896005 0.35005787
000250 46 48 2f be fa 11 8a bd 23 0b 3b 3d f6 25 48 3d
       -0.17117414 -0.0674171 0.045664918 0.048864327
000260 78 e4 b6 3c 7d 2b 94 3d dd ba 9c bc 4f 09 c7 3b
       0.02232574 0.07234857 -0.019132072 0.0060741077
000270 9d 2e 7a 3d dd e6 2f 3e 64 1c af 3d 2b 6f 95 bd
       0.06107961 0.17177911 0.08550337 -0.07296594
000280 54 ca 8a 3e 27 33 0d bd 0a 2b 83 3d 06 70 4c 3e
       0.2710749 -0.03447261 0.064046934 0.19964609
000290 af 22 c9 bb a0 ec 64 bb f7 50 fb 3d b4 6d c2 bc
       -0.006138168 -0.0034931079 0.12271302 -0.023733951
0002a0 ed 73 25 be 23 86 68 3e 2f c1 a1 3e 65 d9 81 3e
       -0.16157503 0.22707419 0.315927 0.2536117
0002b0 31 ba 9a 3d b8 04 c7 be a4 33 ee be 76 e5 46 be
       0.075550444 -0.38870788 -0.46523774 -0.1942347
0002c0 24 87 a5 be 86 aa f1 3d b1 42 56 be e0 60 84 3e
       -0.32329667 0.11800103 -0.20923878 0.2585516
0002d0 63 a2 20 3e a6 ee 99 bc 33 6b 9f be e4 f7 89 3e
       0.15686946 -0.018790554 -0.31136474 0.26946938
0002e0 8b 9d 80 bd 11 ff 80 be 17 47 ff 3d 6a 3a 32 be
       -0.06280049 -0.251946 0.12464731 -0.17405096
0002f0 50 34 7d bc 26 c7 aa 3e 88 3c 1c 3e 31 fe ae 3e
       -0.015454367 0.33355063 0.15257466 0.34178308
000300 20 5a 8a 3d 75 f0 d3 3e d3 c8 ef be 1b f5 3a bc
       0.06755471 0.41394392 -0.46832904 -0.011410977
000310 6d fe 3c bd 19 22 ee bc 49 99 57 3e bf 81 e2 bc
       -0.046141077 -0.029068993 0.21054567 -0.027649758
000320 ea 59 23 bc a5 6d 07 3d f5 ed 2f bd c9 6b aa 3e
       -0.009970168 0.03306355 -0.042951543 0.3328536
000330 69 35 1c 3e 90 6d 78 3c c2 76 a1 bd 3b 3d 3c 3e
       0.1525475 0.0151628405 -0.078839794 0.18382733
000340 7c 71 ee 3e 93 84 5f bd 9f af 5d be af fb 18 3e
       0.46570957 -0.054569792 -0.21649025 0.1493976
000350 1b cb b7 be 14 29 98 3e 53 46 12 be 83 bd c8 3c
       -0.35897145 0.2971884 -0.14284639 0.024504429
000360 97 fe c7 bd 35 53 c0 3d 1f 40 bd bd f9 b2 a1 bd
       -0.09765356 0.093908705 -0.09240746 -0.078954645
000370 a1 3d a5 3d 8f 2f 47 3e d3 a3 cd 3e cc 51 f3 3e
       0.080683954 0.19451736 0.4016405 0.47523344
000380 40 bc ad be f2 69 4c 3d 87 c2 f9 bd 5f 16 42 3d
       -0.33932686 0.049905725 -0.12195306 0.047384616
000390 65 39 2f 3d d1 f0 36 bd 53 56 ad be 43 c1 d7 bd
       0.042779345 -0.044663254 -0.33854923 -0.105349086
0003a0 b9 e5 36 3e a6 0f a3 be 9f ba 43 bb f9 75 20 be
       0.1786107 -0.31847876 -0.0029865874 -0.15670003
0003b0 c1 4e a1 3d bb b6 6a 3e 8e fc 77 bd 27 87 7a 3d
       0.07876349 0.22921269 -0.06054359 0.061164048
0003c0 ab 9e 40 3d 44 bc 07 bf dd 8f fa bd b2 3f 00 3c
       0.047026318 -0.53021646 -0.12234471 0.007827686
0003d0 7f 25 a9 bd 9f b4 57 be 7f 50 d1 3d 22 47 1d be
       -0.08259105 -0.21064995 0.102204315 -0.15359166
0003e0 a7 2a c3 3d 13 22 c7 3e 94 cb c6 bd 5a 18 12 3e
       0.0952962 0.38893184 -0.09706798 0.14267102
0003f0 1e 2b 87 bd 9d 83 c1 bd a2 cd 21 bf 53 97 17 bd
       -0.06600021 -0.09448931 -0.63204396 -0.03700955

model.4.bias f4 [128]
000000 0f ef 0e bb c7 91 bc 3a 89 25 c8 3b 60 77 20 39
       -0.002180997 0.0014386707 0.00610799 0.0001530326
000010 d4 e6 05 bc b3 92 96 bb 1e c3 b1 3b eb 7f 93 3c
       -0.0081727095 -0.0045951246 0.005424871 0.018005332
000020 c0 12 26 ba 02 9a e8 ba 60 e1 ba 3b c7 30 e8 bb
       -0.00063351914 -0.0017746093 0.0057031363 -0.007085893
000030 c4 54 83 bd 72 1c 03 3c 75 d0 fb 3b 21 41 3e bb
       -0.06412652 0.008002387 0.007684762 -0.002903052
000040 7c 7b 93 bb f0 b0 98 bc c0 56 85 3c e9 49 cc bb
       -0.0045008045 -0.018639058 0.016276717 -0.0062343967
000050 4f 73 87 bb 6a 45 98 3b 62 e9 8a bb 91 f3 19 bc
       -0.004133619 0.0046469467 -0.004239247 -0.00939645
000060 5e ff 89 3c 2e ce bc ba 3c 6a 49 bc af c5 c3 3b
       0.016845401 -0.0014404708 -0.012293395 0.0059744935
000070 a4 43 92 3c 77 c2 f3 bb 79 7f db bb 1a 2c 39 b9
       0.01785452 -0.0074389535 -0.0066985455 -0.00017659404
000080 4a 79 bd 3b f0 7f ad bc 4e ad a6 b9 49 c4 41 bb
       0.005782281 -0.02117917 -0.0003179111 -0.0029566458
000090 b4 a7 9d bb d8 8b 9b 3a 52 0b 81 bc b0 23 83 3b
       -0.0048112515 0.0011867238 -0.015752468 0.004002057
0000a0 7d ad 88 3b 4e 20 39 bc a1 81 12 bc 68 03 05 3c
       0.004171072 -0.011299206 -0.008942039 0.008118488
0000b0 b9 ce a1 ba 9b 26 9d 3b 3c b2 16 3d 1b 7d ce ba
       -0.0012344933 0.004795862 0.03679107 -0.0015753837
0000c0 5e eb 27 3b f6 0a 50 3c 63 79 0a bd 39 fb fa bb
       0.0025622468 0.012697926 -0.03380717 -0.0076593426
0000d0 92 df fa 3b ba 2f 0f bc c5 86 a5 3c 40 2d 32 3c
       0.007656046 -0.008739406 0.020205865 0.010875046
0000e0 13 23 0c 3b 66 ef 58 bb cd 60 9e 38 26 0b 55 bc
       0.002138321 -0.0033101677 7.552058e-05 -0.013003146
0000f0 3b 51 5f bc 3f d3 bf 3b de 05 ff bb ef 47 6d bc
       -0.013630207 0.00585404 -0.007782682 -0.014482482
000100 07 cd f6 3b 78 b8 9c 3b e3 36 ac 3b 9f 89 00 39
       0.0075317654 0.0047827326 0.0052555664 0.00012258299
000110 53 ef 17 3c 92 9a b7 3a 02 48 8d 3c 16 36 04 3b
       0.009273368 0.0014007858 0.01724625 0.002017384
000120 28 10 79 3b 45 ca 95 bc e1 60 1c ba 64 ce 58 3b
       0.0038004015 -0.018284926 -0.0005965364 0.0033082003
000130 e4 eb 83 bc 7c f8 98 3b 23 4e 6d 3b ce 94 a3 bb
       -0.016103692 0.0046682935 0.0036209903 -0.004992104
000140 75 99 cd bb 0a 4b 04 bb 52 fd a4 bb 0a 16 97 bb
       -0.006274397 -0.0020186328 -0.005035081 -0.0046107816
000150 e0 3b 13 3c 90 74 58 ba 11 61 7b 3c bb e1 43 bc
       0.008986443 -0.0008257115 0.015342967 -0.011955674
000160 af 90 dd 3a 15 9a 16 bc 89 49 2a 3c f8 2d 80 3b
       0.0016904081 -0.009192009 0.010393509 0.00391173
000170 5c c4 63 3b 16 23 9c 3b ac 1c 44 3a fe 73 07 3b
       0.003475449 0.0047649248 0.0007481079 0.0020668502
000180 06 18 ae bc ef 13 d8 ba 48 83 8b bc 47 bf 8b 3a
       -0.02125169 -0.0016485433 -0.017030373 0.0010661863
000190 fe db 84 bc f1 c1 1c bc 40 6e 0e 3a 76 af 1f bb
       -0.016218182 -0.009567724 0.00054332986 -0.0024366057
0001a0 b2 15 3c bc 8d a6 5c 3c 7a a6 94 3b cf ed 35 bc
       -0.011479782 0.013467443 0.004536447 -0.011104061
0001b0 98 95 99 bc 74 1c e3 3b f9 cd a2 3b 2c 56 dc 3a
       -0.01874809 0.006930882 0.0049684015 0.0016810349
0001c0 8a a8 b6 bb 2b 39 02 bc 11 b1 88 bb 94 3c 04 3c
       -0.0055742906 -0.0079482 -0.0041714986 0.008071084
0001d0 68 86 88 3a 3d 0d 4c 3b c4 69 57 bb 9e 09 1f bd
       0.0010416033 0.003113582 -0.0032869438 -0.03882753
0001e0 d6 da 0f 3c ea 88 d8 bb c8 16 c4 3b 12 45 a1 bc
       0.008780202 -0.0066081183 0.005984161 -0.019686256
0001f0 90 83 bf 3b cd 2a 46 3c 63 71 25 3b 3b 97 44 3c
       0.005844541 0.012095165 0.0025244586 0.011998947

model.5.weight f4 [128]
000000 c4 7c af 3e 35 d8 90 3e 43 fe 13 3e c1 22 9d 3e
       0.34274876 0.28289953 0.14452462 0.30690578
000010 fc 32 d6 3e 53 09 ff 3e 6c 3c a2 3e 45 35 a9 3e
       0.41835773 0.498118 0.31686723 0.33048454
000020 aa 13 0e 3e 48 fe 67 3e 60 20 f2 3e 7f 8b f7 3e
       0.13874689 0.22655594 0.47290325 0.48348615
000030 b1 a9 2e 3f 8e 8e 86 3e a9 e7 17 3c bc d2 1a 3e
       0.6822768 0.26280636 0.009271541 0.15119451
000040 09 99 a7 3e 02 c3 e8 3e 8a 46 d1 3e a3 e9 9d 3e
       0.32733944 0.4546128 0.4087413 0.30842313
000050 c2 e5 95 3e 49 19 b5 3e cc b3 6f 3e f3 0a db 3e
       0.29276854 0.35370854 0.23408431 0.4278179
000060 83 62 a6 3e a8 2f 28 3d 37 3a ac 3e a5 a4 1b 3f
       0.32497033 0.041061074 0.33638164 0.607981
000070 3b 43 b9 3e 79 ec 03 3e bd 46 89 3e 48 1b 77 3c
       0.36184105 0.12883176 0.26811782 0.015082188
000080 42 e2 02 3f 29 55 74 3e 91 05 0f 3e f8 eb 29 3e
       0.5112649 0.23860611 0.13966967 0.16593921
000090 6a 7a 8b 3e a0 f9 6a 3e 6d eb c4 3e 67 da 71 3e
       0.27241832 0.22946787 0.38460866 0.2361847
0000a0 68 f0 81 3e 9b 06 a6 3d 44 b6 bd bc c5 12 89 3c
       0.25378728 0.08106729 -0.0231582 0.016732583
0000b0 3c 5e 3f 3c d6 25 ad bc 1a ee 04 3f 9f 67 d1 3e
       0.011680182 -0.021136206 0.51925814 0.4089937
0000c0 f5 09 b7 3e 41 78 b0 3e dc 76 ad 3e 04 c8 ab 3e
       0.35749784 0.34466746 0.33879745 0.33551037
0000d0 81 65 bd 3e a0 f6 84 3e 60 8b 8d 3e 15 30 e7 3e
       0.36991504 0.2596941 0.27645397 0.4515387
0000e0 d4 68 07 3d d3 72 f8 3c df 5e b7 3c 78 85 71 3e
       0.033058956 0.03032819 0.022384105 0.2358607
0000f0 7d 7f d2 3e 0e 25 ae 3e b5 85 c7 3e 30 5d 1c 3e
       0.4111289 0.34012645 0.38969198 0.15269923
000100 4d b0 b0 3e 6a 3d 31 3e 61 2d b8 3e 6a 71 a6 3e
       0.34509507 0.17308584 0.3597212 0.32508403
000110 90 ef b4 3d b5 34 63 3e 41 5e bc 3e 11 36 45 3e
       0.088347554 0.22188075 0.3679066 0.19258906
000120 82 7c 96 3e 4f 4b b0 3e ea 48 5d 3e 0e 16 97 3c
       0.29391867 0.34432456 0.21609846 0.018443134
000130 73 30 f3 3e a0 d0 93 3e d9 0c b9 3e 96 e9 c2 3e
       0.474979 0.28870106 0.36142614 0.38068837
000140 f2 0d bf 3e 4f b9 91 3e 1f a7 cd bc a9 68 e3 3e
       0.37315327 0.28461692 -0.025104104 0.44415787
000150 8a 72 af 3e 51 00 c7 3e e2 e2 a9 3e f4 d9 7c 3e
       0.34267074 0.3886743 0.3318091 0.24692518
000160 45 f9 88 3c 23 bb af 3e 81 59 da 3e a0 71 8d 3e
       0.016720423 0.3432246 0.4264641 0.27625751
000170 d7 93 f4 3d 14 b0 de 3e 05 39 c7 3d 76 a8 98 3d
       0.11942261 0.43493712 0.097276725 0.074540064
000180 50 eb cb 3e f8 2c 88 3e 41 44 e7 3e 2e f2 26 3e
       0.39827967 0.26596808 0.4516926 0.16303322
000190 27 ac dc 3e b6 cd ea 3e e4 01 c2 3e f2 e4 bc 3e
       0.43100092 0.4586007 0.37892067 0.3689342
0001a0 ef ff 05 3f 53 32 f4 3d df 1e 83 3e 92 4e d5 3e
       0.5234365 0.11923661 0.2560949 0.41661507
0001b0 70 92 0a 3f 8d b4 9d 3e 5f cd 03 3e 1d c8 5a 3e
       0.54129696 0.30801812 0.12871312 0.213654
0001c0 6d 6f bc 3e be 78 cb 3d 77 ce 19 3d 59 60 dc 3e
       0.3680376 0.09935139 0.037550416 0.43042257
0001d0 8f 07 82 3e 60 c3 cf 3e 48 cb a7 3d 93 7c 11 3f
       0.25396392 0.40578747 0.0819307 0.5683071
0001e0 14 55 bb 3e d0 6f 1b 3e 06 b0 b8 3e 09 1d 8b 3e
       0.36588347 0.15179372 0.36071795 0.2717059
0001f0 88 24 18 3e 88 62 2d 3e 28 da c7 3e 10 6c c5 3e
       0.14857686 0.16932118 0.39033628 0.38559008

model.5.bias f4 [128]
000000 a5 c3 04 3e 02 f5 a0 3c a7 85 b7 be 08 bd cd bd
       0.12965257 0.019648079 -0.35844156 -0.100458205
000010 ea 10 f2 bc c0 48 09 be 46 60 c9 3d c2 81 51 bd
       -0.02954908 -0.13406658 0.09832816 -0.051149137
000020 3e ce 5a bc b7 12 6d bc dc 98 15 3d c7 05 95 3d
       -0.013354836 -0.014469794 0.03652273 0.072764926
000030 07 25 a1 bd 94 63 70 be 06 13 90 bd ae fd 54 3c
       -0.078683905 -0.23475486 -0.070348784 0.012999935
000040 5a db 1b be 36 3d a7 bd 4c 67 76 3d 6e 8e 24 3e
       -0.15220395 -0.08165972 0.060157105 0.16069958
000050 e0 b4 da 3d 77 56 d9 3d fa 98 60 3d 0d 9a f9 3c
       0.106790304 0.10612195 0.05483339 0.030468965
000060 4b a3 96 3b 7b e6 07 be 6a 9f 1d 3e ec 2a 89 3d
       0.0045971028 -0.13271515 0.15392843 0.0669764
000070 54 e8 31 be 2a d1 10 bc 2a 30 74 be 84 08 60 bd
       -0.17373782 -0.008838931 -0.23846498 -0.05469562
000080 b7 54 41 bd ff cd 80 be 32 14 74 be e8 9b b5 3d
       -0.04719993 -0.25157163 -0.23835829 0.088676274
000090 e8 a5 de bc f6 b9 ce be 52 f7 c2 bd b1 45 8c bd
       -0.02717872 -0.40376252 -0.09519829 -0.0684923
0000a0 a0 0f 32 3c 5d b5 3a be 24 dd 51 be 9f ae 3f bd
       0.010867983 -0.18233247 -0.20494515 -0.04679739
0000b0 09 60 6f bd 3c 1d 39 be 38 3d 0c 3d 75 cc 9f bd
       -0.058441196 -0.18077558 0.03423807 -0.07802669
0000c0 4a e5 c8 ba a1 47 8c bc 7a 1a 37 3d ee 62 c8 3d
       -0.0015327123 -0.017124 0.044702984 0.09784494
0000d0 89 5d c7 bd 99 c0 9c bd d7 51 d3 bd f5 76 6a be
       -0.09734637 -0.076539226 -0.10318344 -0.22896941
0000e0 5c f0 d9 bd 1e 1c b3 bd 14 8f c4 bd 82 b7 2e be
       -0.10641548 -0.08745597 -0.095976025 -0.1706219
0000f0 ee c2 d5 3d 46 93 9d 3c 92 c2 07 3d b0 92 17 bb
       0.104375705 0.019235265 0.03314454 -0.0023128204
000100 57 93 f5 3c 2c 0d 66 be a4 67 8a bd 3f 49 4d bd
       0.029977484 -0.22465962 -0.06758049 -0.05011868
000110 ce 75 25 be 51 14 1a be 43 1f e4 3b 3e 84 21 be
       -0.1615822 -0.15046813 0.0069617345 -0.15773103
000120 da 31 5f bc 53 16 88 bc a0 2a b5 bc b5 b1 a9 bd
       -0.013622725 -0.016612208 -0.022115052 -0.08285848
000130 b7 2f 38 be ae 84 42 bd d6 e6 dc 3c 63 3f 2c be
       -0.17986952 -0.047489814 0.02696554 -0.16821055
000140 a8 1e 9a 3d a5 ff 1c be d0 5d 06 be 54 62 ad 3d
       0.075253785 -0.15331896 -0.13121724 0.0846602
000150 ef 96 bd 3c 4d b4 ac be 8b 8c 47 bd 0b 9a 00 bd
       0.02314326 -0.3373131 -0.048718017 -0.031396907
000160 ad e7 a6 bd a3 69 1e 3c 4d e8 1b be b1 a5 a2 bd
       -0.081496574 0.00966874 -0.15225334 -0.079417594
000170 ac 4c 30 be 7b fd fa 3d bb 9e 30 be a4 66 18 be
       -0.17216748 0.12255379 -0.17248051 -0.14882904
000180 40 61 e2 bd 88 13 62 be b6 b0 c4 3c 99 41 5e bd
       -0.11053705 -0.22077763 0.024010044 -0.054261778
000190 a2 ce 7b 3d 35 3b 25 be dc e4 ff bd 98 77 49 3d
       0.061476357 -0.16135867 -0.12494823 0.04918632
0001a0 63 7a b9 3d 59 c1 03 be a4 64 01 3d 9b 1a 8f bc
       0.090565465 -0.12866725 0.03159012 -0.017468741
0001b0 84 00 8b be a8 e6 f9 bd 98 9b 81 be f0 56 71 be
       -0.2714883 -0.12202197 -0.2531402 -0.2356832
0001c0 74 81 a7 bd 36 9b 87 bd 56 e9 1c be 4b ce 63 3d
       -0.08178988 -0.06621401 -0.15323386 0.05561666
0001d0 3f e7 53 be a2 75 5b bd 8e 50 41 be d5 be dd 3d
       -0.20693682 -0.05357898 -0.18878385 0.10827414
0001e0 a3 51 ff 3c 3d c1 0f be d8 5e a1 be 4c 2d 81 bd
       0.031166857 -0.14038558 -0.31517673 -0.06307468
0001f0 c9 e5 8c be e3 ae 46 be a7 3d b4 bd 76 ce 26 3c
       -0.27519062 -0.19402651 -0.08800822 0.01018106

model.5.running_mean f4 [128]
000000 b4 a2 7b 3e 45 89 04 bf 80 f9 6c b9 10 40 97 3c
       0.24573785 -0.51771957 -0.0002259966 0.018463165
000010 13 62 d6 3d d0 da 9a 3e 53 2a 82 3e f1 dd 50 3e
       0.10467925 0.30245066 0.25422916 0.20397164
000020 f8 0c be be 0e 73 88 bd e8 b0 c4 3e fe fe 52 bf
       -0.3711927 -0.0666257 0.3841622 -0.8242034
000030 84 31 58 3e 14 c9 d6 be 7f 3e e5 be 0d 82 de be
       0.21112639 -0.41950285 -0.44774243 -0.43458596
000040 4d ce 36 be a4 95 ea bd 10 ee 9d 3e c7 c2 aa be
       -0.17852135 -0.11454323 0.3084569 -0.33351728
000050 3b 3a 78 be df 71 fc bd ba 72 fc bd 59 d2 4d 3e
       -0.24240963 -0.12326407 -0.1232657 0.20099773
000060 55 5a 0f bf ec d4 c1 bd 0f 8a 3b 3d c6 9c f0 be
       -0.5599721 -0.0946444 0.04578596 -0.4699461
000070 eb eb 07 3f 5b 2b 16 be 24 8a dd 3c 07 ed 37 bd
       0.5309436 -0.14664976 0.02704341 -0.04490378
000080 c9 f9 94 be 81 1d 3f be b8 69 55 be 25 b4 00 be
       -0.2909682 -0.18663599 -0.2084111 -0.1256872
000090 69 e1 ec bd d6 d7 12 bf 95 8c da 3d a9 28 4c bf
       -0.11566431 -0.5736059 0.10671345 -0.7974954
0000a0 02 a1 10 bf a4 8a 9b 3e e6 ae 84 bd 05 a1 7b bd
       -0.5649568 0.30379212 -0.06478672 -0.061432857
0000b0 72 09 e3 3a eb 72 2f bd 7b df 32 3e 66 c7 ab be
       0.001732154 -0.042834204 0.17468064 -0.33550566
0000c0 d1 95 c1 be 2c 3c 0d bf cc aa 8f be 8c a5 e8 be
       -0.37809613 -0.5516994 -0.28059995 -0.45438802
0000d0 ca 94 ba be 33 88 1f bf e2 44 86 be d1 06 f9 3e
       -0.36441642 -0.623172 -0.26224428 0.48638013
0000e0 2b 0b d4 bd 64 48 d1 bd cd 76 8c 3c 21 4a be bd
       -0.103536926 -0.102188855 0.017146492 -0.09291483
0000f0 b9 cf 09 be 37 4b 8a be a1 f5 9d 3e 6e aa 97 be
       -0.13458146 -0.2701051 0.30851462 -0.29622215
000100 24 c9 4c bd 0c 37 84 be f9 eb 06 bf 8e 35 3e be
       -0.04999651 -0.25823247 -0.52703816 -0.18575117
000110 3e ae b5 be 8e fa b2 be 38 11 8b be a3 5e 80 3e
       -0.354845 -0.34956783 -0.27161574 0.25072202
000120 58 50 43 bd 8c af 14 bf b6 e9 eb be 8a 87 87 bd
       -0.047684044 -0.58080363 -0.46076745 -0.06617649
000130 d2 9b 9a 3e 6c d5 1a 3e d6 b1 95 be 31 5b ef bd
       0.30197006 0.15120476 -0.2923724 -0.11687315
000140 12 76 01 3d f6 1c b3 3e f2 2e 80 bd bb 2f 04 bf
       0.03160674 0.34983033 -0.06258954 -0.5163533
000150 68 af 2e bf 03 54 7a be c7 3c dd be a7 3e c4 bd
       -0.682364 -0.2444611 -0.43210432 -0.095822625
000160 83 1b 81 bd 6a 14 1a be a6 69 64 bf 8c 72 26 be
       -0.063040756 -0.1504685 -0.89223707 -0.16254634
000170 99 d8 bb be 6f 1a c8 be b3 00 73 be bb 03 36 3e
       -0.36688688 -0.39082667 -0.23730735 0.1777486
000180 e6 6f 2d be ff d2 03 be 2d 7a 43 be 20 0e d4 be
       -0.16937217 -0.12873457 -0.19089575 -0.41417027
000190 59 99 6f be 73 a7 cc 3e cf 15 a1 3e 47 a6 16 bf
       -0.23398341 0.39971504 0.3146195 -0.5884747
0001a0 38 05 17 3e 40 58 d1 bb 39 49 6d be 8e d8 80 3d
       0.14748085 -0.006388694 -0.23172463 0.062913045
0001b0 45 f3 ae 3e 39 cc a0 3e 68 56 27 be ee 03 86 3d
       0.34169975 0.3140581 -0.16341555 0.06543718
0001c0 fe 34 64 3e f2 6a 33 3e 2e 1c 6f 3c f1 fa 56 3e
       0.2228584 0.17521265 0.014594121 0.20994164
0001d0 87 08 77 be 11 af 2f bf 42 96 6c bd d1 73 34 3e
       -0.24124347 -0.68626505 -0.057760485 0.17622305
0001e0 89 01 6a 3e 2c 0e d7 3d a9 9b 65 be 5d 74 80 3e
       0.22852148 0.1050075 -0.22422661 0.25088778
0001f0 d4 db 9e bc 41 08 90 be ba b9 6d bc 05 94 df bd
       -0.019391932 -0.28131297 -0.014509613 -0.10916904

model.5.running_var f4 [128]
000000 e5 fc 22 3f 2c df d1 3e e6 e0 bd 3e ae 99 e5 3e
       0.63667136 0.4099058 0.37085646 0.4484381
000010 bc 2f 8c 3e 8c 33 aa 3e 20 3a 55 3e 49 1f 4f 3e
       0.27380168 0.33242452 0.20822954 0.20226778
000020 87 5a 03 3f 69 15 38 3f ef a1 de 3e eb 26 aa 3f
       0.5131001 0.7190767 0.4348292 1.3293127
000030 0d de c6 3e b3 1c 01 3f 3b 73 93 3e 63 06 d9 3e
       0.38841286 0.50434417 0.2879885 0.42387685
000040 af 7e a9 3e ff 93 22 3f 05 d7 ed 3e 56 27 33 3f
       0.33104464 0.63507074 0.4645311 0.69981897
000050 15 a1 f1 3e 70 0c 11 3f 35 4c d1 3e 16 75 18 3f
       0.47193208 0.56659603 0.40878454 0.5955366
000060 e1 d3 52 3f 49 74 ac 3d 0b de 20 3f 27 9b 89 3f
       0.8235455 0.08420617 0.6283881 1.0750474
000070 78 a4 c7 3e 9a 8f a1 3e c1 83 f5 3e 4f d4 8d 3c
       0.38992667 0.31554872 0.47952083 0.01731315
000080 b5 c3 49 3f 78 8b 07 3e 8c 3d a1 3e e7 d7 ff 3e
       0.7881425 0.13236797 0.3149227 0.49969408
000090 d9 fa 15 3f 17 a3 1b 3f 05 2d 2f 3e 4d 43 20 3f
       0.5858589 0.6079573 0.17107017 0.6260269
0000a0 24 23 f8 3e 2e 89 d4 3d e5 4f d7 3d 6d f6 bb 3d
       0.4846431 0.103777274 0.105132855 0.09177861
0000b0 54 cd 6b 3a 40 d7 c5 3c 8b 53 f5 3e 07 36 1b 3f
       0.0008995135 0.02415049 0.479153 0.60629314
0000c0 ed 1e f2 3e d6 a4 72 3f 08 4f c2 3e 73 cf 5f 3f
       0.4728922 0.9478277 0.3795092 0.8742592
0000d0 0b 1c 33 3f 28 d7 11 3f 69 ab 9e 3e 5c 99 6c 3e
       0.69964665 0.5696893 0.3099015 0.23105377
0000e0 94 9b b2 3c 26 f0 14 3e d4 dc f5 3a b5 05 95 3e
       0.021802701 0.14544734 0.0018757829 0.29105917
0000f0 6d 6a 25 3f 69 90 04 3f 62 49 06 3f b3 40 31 3e
       0.6461552 0.5178285 0.52455723 0.17309837
000100 d8 9a cc 3e ad 6d 8c 3e f3 71 5f 3f 19 bf b3 3e
       0.39961886 0.27427426 0.8728325 0.35106733
000110 69 4b f2 3e 59 ce 05 3f cb e0 26 3f 14 71 28 3e
       0.47323158 0.52267987 0.65186757 0.16449386
000120 ab 6c 7e 3e 1c 35 58 3f 7f f2 d1 3e 13 e2 e6 3c
       0.24846141 0.8445604 0.41005322 0.028183972
000130 c5 f0 97 3e 9b db d3 3e b8 33 3a 3f b4 b7 bb 3e
       0.2967588 0.41378483 0.72735167 0.36663592
000140 9e 75 56 3f cd 67 88 3e f8 7b 51 3b d4 fd 60 3f
       0.8377322 0.26641694 0.003196476 0.8788731
000150 cf 1b 80 3f 80 c8 0d 3f 63 5a 3f 3f 9d b3 e8 3e
       1.0008487 0.55384064 0.74747294 0.45449534
000160 cc dc 6d 3b 5d 8c 1a 3f 80 cd 92 3f 1f a1 d2 3e
       0.0036294935 0.6037043 1.1468964 0.4113855
000170 c2 cc a5 3e 29 01 6a 3f 7f d4 44 3e c0 79 e8 3e
       0.3238278 0.9140802 0.19221686 0.45405388
000180 3a 09 95 3e 13 6a b6 3e a0 b7 c0 3e e2 f9 06 3f
       0.29108602 0.35627803 0.37640095 0.5272504
000190 a3 5b fb 3e 14 0b 87 3e cd 2d 1e 3e e0 da 51 3f
       0.4909335 0.2637564 0.15447159 0.819746
0001a0 32 93 56 3f da be d1 3e 84 41 db 3e cb da 73 3e
       0.8381835 0.4096592 0.42823422 0.23813932
0001b0 29 13 a1 3e 08 c5 04 3f 6c cf a9 3e 6d aa 0f 3e
       0.3145993 0.51863146 0.33166063 0.14029856
0001c0 3d bd bc 3e 1f ef 52 3e 8b 47 11 3e 15 bb f7 3e
       0.36863127 0.2059903 0.14187448 0.4838492
0001d0 a0 75 a0 3e 8a 0b 64 3f c8 c4 5a 3e 8f 4c 00 3f
       0.3133974 0.8908011 0.21364129 0.5011682
0001e0 fa 36 27 3f e0 45 82 3e 9c a2 ee 3e af 9c be 3e
       0.6531826 0.25443935 0.46608436 0.37228915
0001f0 7b 72 2f 3e bc 80 8b 3e d0 ed 82 3e f1 2a 5b 3e
       0.17133515 0.27246654 0.25572062 0.214031

model.8.weight f4 [64, 128]
000000 a8 47 5e be 7c 82 c0 bc 80 9d 2f bc 90 2d a1 3d
       -0.21707022 -0.02349972 -0.010718703 0.078700185
000010 97 6b b0 be a0 1b 7e be c7 28 bb be f8 68 84 be
       -0.34457085 -0.24815226 -0.36554548 -0.25861335
000020 08 ab f2 3d 13 ba b2 bb 8e d4 4f be 4a 16 de 3e
       0.11849028 -0.0054543107 -0.20295927 0.4337638
000030 81 2f cf be ef 12 9f 3e c7 13 a9 bd 70 3d 43 bd
       -0.4046593 0.31069133 -0.08255725 -0.047666013
000040 34 2e b6 3e ce bb d4 3c 3d 05 8b be 0a 23 48 3c
       0.35582125 0.025968459 -0.27152434 0.012215385
000050 e7 34 ee 3d 5d fb ef 3d ba 61 ab bd cc 80 cf be
       0.11631184 0.117178656 -0.08368249 -0.40527952
000060 0d 8b 3b 3e 35 a7 b5 bc 4d 43 18 3d ef 25 3e 3f
       0.18314762 -0.022174457 0.037173558 0.7427663
000070 27 f1 9f be a3 72 c1 3d de 36 22 bd 06 a3 cc 3c
       -0.31238672 0.09445693 -0.039603107 0.02498008
000080 23 b2 21 3f 7a 0f 4a 3e 70 65 19 3e 82 90 8b bd
       0.6316244 0.19732466 0.14980102 -0.06814672
000090 b2 df d0 bd c5 fd 4f 3e 6c 4c a5 be 78 33 3c bd
       -0.101989165 0.20311649 -0.32284868 -0.045947522
0000a0 8e 40 e2 3d 1a 1e 8c bd f3 85 9d 3d da a6 fd bd
       0.11047469 -0.06841679 0.076915644 -0.1238534
0000b0 9e 85 1c bc 70 2c a3 bb a6 40 fd be b8 d6 b5 3e
       -0.009553341 -0.0049796626 -0.49463385 0.3551538
0000c0 87 f1 7c 3e c2 5f d9 3e d7 97 92 3e 3a 6f cd 3e
       0.2470151 0.4245587 0.2863147 0.40123922
0000d0 97 47 77 3e 7c 69 65 3e e7 b9 a4 3c 7a 6e a5 bc
       0.24148403 0.2240352 0.020108176 -0.02019428
0000e0 74 d2 43 bd c4 ca 85 bc e3 45 47 ba 32 79 68 3d
       -0.047808126 -0.016332038 -0.00076016615 0.056756206
0000f0 86 e9 e3 be af f3 06 3d c7 d7 70 be d3 f5 2a bd
       -0.44514102 0.03294724 -0.23519813 -0.041738342
000100 58 a8 8f bd 38 37 f1 3d 3a 75 d7 3e c1 ae 88 3d
       -0.07014531 0.1177811 0.42081624 0.06673957
000110 f7 8e 94 3c 6c a4 3b 3e 63 fd 74 3d 98 ab 99 be
       0.018134577 0.1832444 0.05981196 -0.30013728
000120 ac 7b 07 3e 54 db a8 3e 5d c2 1d 3e 3f 6a ab bc
       0.13230771 0.32979834 0.15406175 -0.020924686
000130 9f 85 1e be 17 17 81 be e6 6a ac be 08 02 96 3e
       -0.1548066 -0.2521293 -0.33675307 0.29298425
000140 ec c1 3c 3c 46 59 01 be c5 6e 48 3c 4c f3 ef 3e
       0.011520844 -0.12631711 0.012233441 0.46865308
000150 4c 75 ac 3e d4 9a ab 3e 86 a0 b9 3d 5a 42 d2 3d
       0.3368324 0.33516562 0.090638205 0.10266562
000160 06 44 a6 3c 0a 1c 2f be be de 9d 3e 81 78 94 3e
       0.020296108 -0.1710054 0.30834 0.28998187
000170 aa 77 f2 3d ea d9 f5 3e bb fd 0f 3e 4f ec 9b 3d
       0.1183923 0.48017818 0.14061634 0.07613432
000180 81 3f b6 3e b0 eb 2f 3e 6a 62 7f 3c aa 76 41 bc
       0.35595325 0.17179751 0.015587429 -0.011808077
000190 e6 ea c6 bd da 78 a0 3e 66 d1 82 be 46 ed be 3e
       -0.09712772 0.31342202 -0.25550383 0.372904
0001a0 c0 cd 41 3d 06 2e 23 3c 7a 03 8c 3d 96 14 30 be
       0.04731536 0.009959703 0.068366006 -0.17195353
0001b0 89 9a ba bc 35 89 ab 3c ce 5f a2 3d 03 3c 41 3e
       -0.022778766 0.020939449 0.079284295 0.18870549
0001c0 fc 05 96 be ac ea 7e be e6 8a ff bd 0c a9 50 be
       -0.2930144 -0.24894208 -0.12477665 -0.20376986
0001d0 a6 ec 93 3e ea 92 e3 3e 65 e6 c9 bc 61 a9 a1 be
       0.28891486 0.44448024 -0.024645993 -0.31574538
0001e0 05 d4 c2 be 0c c1 fa bd 7f 4d d9 3e d3 c9 89 be
       -0.38052383 -0.12243852 0.42441937 -0.26911792
0001f0 25 d2 76 3d 33 e9 f9 3d 32 af ea be 8c 32 53 3e
       0.060259003 0.12202682 -0.45836788 0.20624751
000200 91 27 32 be 99 fc 88 be d8 b9 6e 3d 6c 72 17 3e
       -0.17397906 -0.26755217 0.058282703 0.14789742
000210 41 1f 59 3b 4e 6d 0f bc dd 87 f9 be 03 c9 90 bd
       0.00331302 -0.008754088 -0.48736468 -0.0706959
000220 7f 73 bc 3d 6a 8e 73 3e 2d 95 92 be 57 a3 52 3e
       0.09201717 0.23784795 -0.28629437 0.20570122
000230 d7 e3 49 be c5 40 0d 3f e9 3d 9e bc ab 13 fb bd
       -0.1971582 0.55176955 -0.01931663 -0.12259611
000240 7f d4 7a 3e 41 67 22 3e f6 9f 8f bd 3a 01 ec bc
       0.24495123 0.158597 -0.07012932 -0.028809179
000250 41 06 25 bd 37 87 df 3d 35 cf 17 3d 90 6a 82 be
       -0.040289167 0.10914462 0.037062842 -0.25471926
000260 6d 6f 99 3e 2d 77 0e 3d 7c 0d 88 bc f5 b1 a0 3e
       0.29967824 0.034781624 -0.016607992 0.3138577
000270 7b 2e 1e be 85 59 a3 3d 39 e3 55 3d b7 c2 85 3c
       -0.15447418 0.07976059 0.05221865 0.016328199
000280 b6 a5 23 3f bb cd 9a 3e 8d e4 bc 3d be b9 3f be
       0.6392473 0.30235085 0.0922328 -0.18723199
000290 e5 43 12 be dc ee a1 3e 76 74 6e bd 14 30 0f 3c
       -0.14283712 0.31627548 -0.058216535 0.00873949
0002a0 3f a0 f6 3c 8e 89 8a bc da c6 02 3d de f5 4f be
       0.030105708 -0.016911294 0.03192792 -0.20308635
0002b0 13 8b 52 3c 15 3e 0d bc da 3a ca be c3 05 0f 3f
       0.012850541 -0.008620759 -0.39498025 0.55868167
0002c0 86 a2 e2 3d 87 27 ea 3e 6e d1 7e 3d f6 f3 9f 3e
       0.11066155 0.45733282 0.062211446 0.31240815
0002d0 31 e0 6f 3e c3 be 1b 3e 64 c0 a5 bb ad 89 57 bd
       0.23425366 0.15209489 -0.005058335 -0.052621532
0002e0 99 cc 68 bc 2a 04 b2 3c 3f 86 17 3d be 0b f0 bc
       -0.014208936 0.021730501 0.03699326 -0.029302474
0002f0 c9 4d 59 be 71 56 17 be 23 b8 70 be f6 8e 97 3d
       -0.21221079 -0.14779069 -0.23507743 0.074003145
000300 d0 3c c0 3b d0 7a 7b 3e 2c 0f 4b 3e 5e 37 39 3c
       0.0058666244 0.24558568 0.19830006 0.0113047045
000310 5d 4d ff 3d 54 5f a7 3e 8b a2 ee 3d 70 c9 a1 bd
       0.12465928 0.32689917 0.11652096 -0.07899749
000320 a5 f2 15 3e 90 13 07 3e 66 09 71 3d 4b f5 12 3c
       0.14643343 0.13191056 0.058846854 0.008969615
000330 b0 78 19 be 34 d2 e0 bd 15 08 a4 3d fe 5d ba 3e
       -0.14987445 -0.10977593 0.08009354 0.36399835
000340 db 05 2b 3e fd 5a 7a bd 27 76 73 3c 09 9c 94 3e
       0.16701452 -0.06112193 0.014859713 0.29025295
000350 56 56 57 3e fc fa c8 3e 22 d0 bc 3d 4d 81 6d 3d
       0.21029028 0.39253986 0.09219386 0.05798464
000360 9d 28 1a bc 61 94 1a 3c 76 e5 8f bc 6a 43 b0 3e
       -0.009409097 0.00943479 -0.01756547 0.34426433
000370 da 1d 13 3e 95 df c5 3e d2 9b cf 3c 05 74 8c bd
       0.14366856 0.38647142 0.025342856 -0.068580665
000380 c9 ea cf 3e db 2b a7 3e 32 15 64 be 9c 6e cf bc
       0.40608814 0.32650647 -0.2227371 -0.025321297
000390 a5 55 bf 3c de cf d8 3e c6 6c ad be ef 21 fe 3e
       0.023356268 0.4234609 -0.3387205 0.49635264
0003a0 34 4c 05 be 24 29 54 be 5e ff ee 3c 0b 11 eb bd
       -0.1301735 -0.20718819 0.029174503 -0.1147786
0003b0 6d 49 48 be bb fb b9 bd 5c 4f 4f bd 70 eb ea 3d
       -0.1955926 -0.09081217 -0.050612792 0.114706874
0003c0 c5 a3 ae be 66 c3 84 be de 22 ad 3d 7f ee 05 be
       -0.3410932 -0.25930327 0.08453916 -0.1307926
0003d0 b6 26 67 3e cd 88 75 3d 54 c9 1a be 94 16 80 be
       0.22573361 0.059944917 -0.15115863 -0.25017226
0003e0 b3 fd 20 bd 08 34 d8 37 b0 33 00 3f 19 98 7b be
       -0.039304446 2.5773435e-05 0.5007887 -0.2456974
0003f0 9e 26 fe 3c 67 6d 02 3e 0d 54 05 bf 20 ec 35 3e
       0.031024273 0.12737046 -0.52081376 0.17765856

model.8.bias f4 [64]
000000 ed 59 25 3b 91 28 a3 bb 1b 54 8e 3a 8d ab 01 3c
       0.0025230602 -0.004979201 0.0010858806 0.007914436
000010 9f ec 05 ba 08 97 92 3a c4 26 c3 3b 40 59 67 ba
       -0.00051088067 0.0011183927 0.005955549 -0.000882525
000020 28 68 6b 3b fb cc fa bb 7a 40 ab 3b c8 7f a4 bb
       0.0035920236 -0.00765383 0.005226192 -0.0050201155
000030 9b c6 1f 3b cf 37 9a 3b 81 49 af bb 44 3a e5 39
       0.0024379853 0.00470636 -0.0053493385 0.00043721695
000040 92 fc 02 3a de 93 dd ba 20 70 24 3d 51 23 d7 ba
       0.00049967424 -0.001690503 0.040145993 -0.0016413723
000050 73 57 0d bc 9e 7c ca 3b d3 99 bc bb 0b e3 55 ba
       -0.008626807 0.0061794063 -0.005755642 -0.0008159137
000060 0f 56 f8 3b 5c f9 26 3c c1 55 ec 39 d1 82 7b 3b
       0.0075786184 0.010191288 0.0004507732 0.0038377533
000070 53 a0 6e 3b 63 00 c2 3b 5b 78 02 3c 05 c7 ab 3b
       0.0036411479 0.0059204563 0.007963265 0.005242231
000080 5b 0d 2c 3a be 21 6d bb 2c 90 1a 3a 43 86 9a bb
       0.00065632694 -0.0036183442 0.0005896117 -0.0047157123
000090 e9 e6 3b 3c f7 34 8a bb c9 54 15 3c eb c1 37 3c
       0.0114686275 -0.0042177397 0.009114453 0.011215667
0000a0 cc 3a 2d 3a 6a e1 0f 3b e7 5d 83 3b ff 8c 31 39
       0.00066081877 0.0021954426 0.0040089968 0.0001693256
0000b0 00 df 1f 3a 28 5f e2 39 6c 55 28 bb a8 fe 3f 3b
       0.0006098598 0.00043176976 -0.002568568 0.0029296074
0000c0 77 ec e4 3a 7e 8e eb bb 08 60 a0 3b 85 db ca 3b
       0.0017465492 -0.0071886173 0.0048942603 0.0061907195
0000d0 13 fd d2 bb 05 91 c2 bb db 7c 88 3a 24 f8 ad bb
       -0.00643886 -0.005937698 0.0010413186 -0.0053091217
0000e0 f6 01 07 3c d6 10 fb bb ec d6 6d 39 da 11 9c ba
       0.008240214 -0.007661919 0.00022682146 -0.0011907176
0000f0 e9 a6 06 bb cd c6 18 3a 80 48 1f bb 94 ce da bb
       -0.0020546264 0.00058279635 -0.0024304688 -0.006677458
